…
         [ 0.0000,  0.0000,  0.0000,  ...,  0.0000,  1.0000,  0.0000],
         [ 0.0000,  0.0000,  0.0000,  ...,  0.0000,  0.0000,  1.0000]]],
       device='cuda:0')}, 'region_threshold': tensor(-0.0086), 'time_threshold': tensor(-0.6435), 'early_stopping': <STAnomalyFormer.interface.utils.EarlyStopping object at 0x7fa13e4b8310>, 'model': STPatch_MGCNFormer(
  (revin): RevIN()
  (patch): Patch()
  (patch_tsfm): PatchEncoder(
    (W_P): ModuleList(
      (0-13): 14 x Linear(in_features=12, out_features=128, bias=True)
    )
    (dropout): Dropout(p=0.1, inplace=False)
    (encoder): TemporalTransformer(
      (attn): MultiheadAttention(
        (q): Linear(in_features=128, out_features=128, bias=True)
        (k): Linear(in_features=128, out_features=128, bias=True)
        (v): Linear(in_features=128, out_features=128, bias=True)
        (o): Linear(in_features=128, out_features=128, bias=True)
      )
      (conv1): Conv1d(128, 256, kernel_size=(1,), stride=(1,))
      (norm1): LayerNorm((128,), eps=1e-05, elementwise_affine=True)
      (dropout): Dropout(p=0.1, inplace=False)
      (conv2): Conv1d(256, 128, kernel_size=(1,), stride=(1,))
      (norm2): LayerNorm((128,), eps=1e-05, elementwise_affine=True)
    )
  )
  (spatial_tsfm): TemporalTransformer(
    (attn): MultiheadAttention(
      (q): Linear(in_features=128, out_features=128, bias=True)
      (k): Linear(in_features=128, out_features=128, bias=True)
      (v): Linear(in_features=128, out_features=128, bias=True)
      (o): Linear(in_features=128, out_features=128, bias=True)
    )
    (conv1): Conv1d(128, 128, kernel_size=(1,), stride=(1,))
    (norm1): LayerNorm((128,), eps=1e-05, elementwise_affine=True)
    (dropout): Dropout(p=0.1, inplace=False)
    (conv2): Conv1d(128, 128, kernel_size=(1,), stride=(1,))
    (norm2): LayerNorm((128,), eps=1e-05, elementwise_affine=True)
  )
  (da_gcn): MultipleGCN(
    (sigma): Linear(in_features=3, out_features=263, bias=True)
    (linears): ModuleList(
      (0-3): 4 x Linear(in_features=128, out_features=128, bias=False)
    )
  )
  (proj_dy): Sequential(
    (0): Dropout(p=0.1, inplace=False)
    (1): Linear(in_features=128, out_features=12, bias=True)
  )
  (proj_st): Sequential(
    (0): Dropout(p=0.1, inplace=False)
    (1): Linear(in_features=128, out_features=12, bias=True)
  )
), 'decision_scores_': tensor([[[ 0.2773, -0.8787],
         [ 0.2773, -0.6635],
         [ 0.2773, -0.8626],
         ...,
         [ 0.2773, -0.6962],
         [ 0.2773, -0.9058],
         [ 0.2773, -0.5438]],

        [[ 0.5205, -0.8787],
         [ 0.5205, -0.6635],
         [ 0.5205, -0.8626],
         ...,
         [ 0.5205, -0.6962],
         [ 0.5205, -0.9058],
…
